agModels-predictClass/models/NeuralNetTorch_BAG_L1/S1F5/temp_model.pt (torch, 223915 bytes, 15 tensors)

weight f4 [6, 4]
-1.1207603 -1.1362623 -0.24812785 -0.43508163 0.86267143 0.7100196 -0.2986431 -2.1307185
0.4617738 -0.15885544 1.4390465 0.25257185 0.15079616 0.86083156 -0.15078282 -0.09527164
0.9352294 1.2640058 2.0111814 0.050803334 0.5712626 -0.36675093 -0.79387265 -2.2681446
00000000: 1375 8fbf 0b71 91bf 3a15 7ebe 05c3 debe
00000010: 09d8 5c3f d8c3 353f c0e7 98be b15d 08c0
00000020: 9e6d ec3e 00ab 22be ad32 b83f 1951 813e
00000030: 4f6a 1a3e 755f 5c3f d066 1abe c71d c3bd
00000040: 326b 6f3f f1ca a13f 32b7 0040 2817 503d
00000050: 443e 123f c7c6 bbbe 3d3b 4bbf 4829 11c0

weight f4 [9, 5]
-0.23004027 -0.7381013 0.5791711 0.25567368 -0.15239643 -0.7068651 0.96430653 0.5175731
1.2163241 0.11447787 -1.1762886 -0.018596286 -0.54353297 -0.30493355 -1.5664651 1.693823
0.2042339 -0.44590515 -0.5733001 -0.5517118 0.5907035 1.5445819 0.5087925 -0.59878343
-1.3273013 0.18446171 -0.060401782 -0.49607602 -1.5021889 -0.4074762 1.0411335 0.35126883
-0.018661195 -0.5320051 1.1575333 0.39517936 1.9424629 -0.96834886 0.025835408 0.710429
-1.4875951 -0.36662838 0.9189681 1.5770576 -0.31985483
00000000: ad8f 6bbe 35f4 3cbf 8f44 143f a9e7 823e
00000010: cf0d 1cbe 1cf5 34bf cbdc 763f ac7f 043f
00000020: 82b0 9b3f 6073 ea3d a090 96bf 3d57 98bc
00000030: fa24 0bbf 4020 9cbe ee81 c8bf 31cf d83f
00000040: b122 513e ae4d e4be ccc3 12bf fc3c 0dbf
00000050: 5838 173f dcb4 c53f 3a40 023f df49 19bf
00000060: 02e5 a9bf 88e3 3c3e dc67 77bd adfd fdbe
00000070: ba47 c0bf b8a0 d0be dd43 853f 82d9 b33e
00000080: 5ddf 98bc 7c31 08bf 0d2a 943f f354 ca3e
00000090: a0a2 f83f b6e5 77bf c7a4 d33c adde 353f
000000a0: 8469 bebf b7b6 bbbe 7e41 6b3f 06dd c93f
000000b0: 03c4 a3be

weight f4 [9, 5]
-1.6829307 -0.23464836 0.26465115 0.08230842 1.0958194 0.28393212 0.4386078 -0.8105311
-0.8676745 0.7804719 -0.9279497 0.20509925 -0.33719036 -0.4337756 0.2282386 0.7994058
0.3355747 -0.90148187 -0.040893614 -0.6962251 1.042929 -0.5843564 -1.2838311 0.08901732
1.175224 0.92947656 1.3947445 1.3717319 0.65632415 0.24541019 1.1589199 0.27748647
0.3764597 -0.19675215 -0.12784044 -0.8305442 -1.4020082 -1.9019538 0.11767367 -0.7063767
0.2693624 0.11489367 0.33947006 0.5269762 0.9505655
00000000: 466a d7bf a947 70be 5b80 873e 5191 a83d
00000010: cf43 8c3f 8d5f 913e 3491 e03e f77e 4fbf
00000020: eb1f 5ebf 02cd 473f 1d8e 6dbf 8a05 523e
00000030: 37a4 acbe d617 debe 61b7 693e dca5 4c3f
00000040: 72d0 ab3e 84c7 66bf 1080 27bd cf3b 32bf
00000050: b37e 853f 6298 15bf 9454 a4bf b64e b63d
00000060: bd6d 963f 2df2 6d3f fd86 b23f e994 af3f
00000070: dc04 283f cf4c 7b3e 7d57 943f b512 8e3e
00000080: 53bf c03e 6579 49be 9be8 02be 8b9e 54bf
00000090: 0175 b3bf 3973 f3bf e5fe f03d 1ad5 34bf
000000a0: dee9 893e 5f4d eb3d 05cf ad3e eae7 063f
000000b0: 4358 733f

weight f4 [8, 5]
0.3096789 -0.09698604 1.0242938 -0.5154061 0.7706201 0.6183789 -0.29922032 -0.18512996
-0.126424 0.36758894 -0.32622948 -1.083425 0.23729746 -1.4091023 0.11489953 1.0942775
-1.551454 -0.35581806 1.0723472 0.12592791 1.5775582 0.7867028 0.9814796 -1.4860606
-0.5153143 -0.47646227 -0.6344457 -1.4694031 -0.8823788 -2.0770948 1.1741816 0.09124876
0.017675009 0.34040254 -0.25478107 1.2328948 0.0017380461 -0.8335619 0.90789765 1.2360046
00000000: 3c8e 9e3e 9ea0 c6bd 0f1c 833f a7f1 03bf
00000010: 5c47 453f 144e 1e3f 6833 99be b592 3dbe
00000020: 4b75 01be 9e34 bc3e 8d07 a7be acad 8abf
00000030: 1bfe 723e 775d b4bf 7250 eb3d 4911 8c3f
00000040: 0b96 c6bf c92d b6be ac42 893f 3ff3 003e
00000050: 6ded c93f 5b65 493f 3f42 7b3f 3c37 bebf
00000060: a3eb 03bf ddf2 f3be 096b 22bf 6715 bcbf
00000070: 94e3 61bf 1fef 04c0 954b 963f a1e0 ba3d
00000080: 2ecb 903c 3e49 ae3e aa72 82be 7fcf 9d3f
00000090: 26cf e33a 5064 55bf fb6b 683f 6635 9e3f

weight f4 [8, 5]
1.3419546 -0.28093553 -0.54918885 -2.892459 -1.5102637 1.0262262 -0.33483768 1.5750811
1.7063059 0.35377744 0.96371573 1.4377757 -0.0637556 -0.6327008 -0.14846992 -0.5289886
-0.95883447 -0.6367574 0.07049655 0.5555381 0.5381262 1.2291005 -1.4778452 -1.753162
-0.4831721 -0.35972947 0.58606744 -1.1768125 -0.12881921 -0.1759602 1.4893439 -0.7067484
0.5929774 -0.47805712 -0.35797212 -1.2794553 1.6475298 2.0176516 0.21311337 -0.5183711
00000000: 2bc5 ab3f c8d6 8fbe a497 0cbf 0c1e 39c0
00000010: 5250 c1bf 615b 833f d86f abbe 429c c93f
00000020: 3b68 da3f 5122 b53e 13b6 763f 0909 b83f
00000030: 4c92 82bd aef8 21bf 8008 18be cc6b 07bf
00000040: 2d76 75bf 8802 23bf 7f60 903d bf37 0e3f
00000050: a3c2 093f 2a53 9d3f 082a bdbf 9d67 e0bf
00000060: 5562 f7be 762e b8be 8408 163f cba1 96bf
00000070: 2fe9 03be e92e 34be d2a2 be3f 77ed 34bf
00000080: 5ecd 173f e7c3 f4be 1f48 b7be 31c5 a3bf
00000090: 42e2 d23f 3421 0140 643a 5a3e f8b3 04bf

weight f4 [128, 27]
-0.10821862 -0.17093477 0.1662683 -0.12590586 -0.020150442 0.056094695 0.009287011 -0.12663959
-0.15247306 0.16398275 0.039505288 0.16167563 -0.06776492 0.046403196 -0.042810783 -0.006809669
-0.119831786 0.061641026 0.0533784 -0.006020863 -0.03934214 -0.111672014 0.13233916 -0.14364295
0.08247565 -0.060740583 -0.087551765 0.07361838 -0.101010285 0.038967986 0.053777598 -0.13531932
0.03538806 0.06554274 0.06891885 -0.01818875 -0.15359977 -0.02624301 0.067349136 -0.07527456
0.07735154 0.12218229 -0.10429855 0.008911305 0.08128918 0.020537699 0.014714928 0.024738537
-0.15617189 0.016364202 0.12457283 0.18128213 0.12321864 0.029969191 0.10437574 -0.09946203
-0.16178222 -0.15953185 0.19735774 0.11318722 -0.14690325 0.07033525 0.15282297 0.2122393
0.18356942 0.13797979 -0.05087073 -0.060038358 0.14004566 0.093042366 -0.09711676 0.18580964
0.09867527 0.10045006 -0.11226838 0.04233767 -0.08032636 0.1494477 -0.04847803 0.07897229
0.04051428 0.111034274 -0.06680797 0.09132091 -0.12854937 0.04733368 -0.12914956 -0.19588867
-0.17512402 0.15314975 0.11338474 0.189947 0.1523724 -0.1799854 -0.13118732 -0.042709097
-0.1325645 0.13956475 -0.1382199 -0.08481675 -0.18267694 -0.10570332 0.1506959 0.16321209
0.1394102 0.15053289 0.17511295 -0.051175453 0.123470426 0.16286437 0.058738507 0.20279498
0.10358626 0.122283295 -0.08354501 0.09419757 0.032957185 -0.049317747 -0.11261358 -0.10886341
-0.16487773 0.13358547 0.124924295 -0.029733786 -0.09660914 0.15311155 0.121936545 0.023609119
-0.08947601 0.17493446 0.08075386 -0.16137677 0.18567422 0.1549774 -0.069597974 0.100072585
-0.11812326 -0.040142335 0.15788835 0.0048427777 -0.12668219 -0.05603971 -0.045991987 -0.04475248
0.013658811 0.17061509 0.009576796 -0.1101666 0.004678212 0.09859074 0.10238255 -0.17913307
-0.03874828 -0.14564669 -0.089316644 0.06718252 -0.13502692 0.07056095 0.15678027 0.016864251
-0.12918293 -0.0700928 0.07363361 -0.1490275 0.10073065 -0.14782786 -0.16390102 -0.20817642
-0.06430986 0.12899375 -0.1811512 0.17354867 -0.079877704 0.038334224 0.0073362957 -0.16236454
0.1644337 0.10007502 0.19581285 0.10263145 -0.124819465 0.19225624 0.004959342 0.09429232
-0.15013663 -0.039493643 -0.19582951 -0.078450546 0.03228474 -0.13353157 0.070277974 0.098402046
0.03443898 -0.13316466 -0.14805949 -0.06579771 0.067426465 0.18157615 0.121818446 -0.0058030994
0.069824256 -0.18648489 -0.16024472 0.09939488 -0.104508296 0.09012805 -0.14254333 -0.0886256
-0.15174146 0.09872362 -0.013546768 0.14392462 0.120991334 0.108690456 0.010368749 -0.05571104
-0.010985218 0.030492648 0.09243064 -0.12242728 0.16459556 -0.015042482 -0.17699382 -0.10528304
0.18125564 0.18649645 -0.1712771 0.13986571 0.08799174 0.11515835 0.15228023 -0.10973693
0.07089287 0.08373523 -0.054305736 0.073000915 -0.054339495 0.1161771 -0.050598133 -0.07266122
0.046785064 0.07654324 -0.0931012 0.020730501 0.102022424 -0.024831014 0.05239929 -0.05508028
0.069232926 -0.13357492 -0.10402948 -0.10778128 0.16795787 -0.057844978 0.005116092 -0.08548345
00000000: b9a1 ddbd 8609 2fbe 3d42 2a3e 77ed 00be
00000010: 8a12 a5bc 8dc3 653d 8c28 183c cfad 01be
00000020: e621 1cbe 18eb 273e 4cd0 213d 4c8e 253e
00000030: 56c8 8abd 4711 3e3d 5c5a 2fbd a523 dfbb
00000040: 5e6a f5bd 4d7b 7c3d 4fa3 5a3d a94a c5bb
00000050: 3925 21bd 4cb4 e4bd eb83 073e 2317 13be
00000060: fee8 a83d 1ecb 78bd 574e b3bd 3cc5 963d
00000070: 7bde cebd e59c 1f3d e645 5c3d 2691 0abe
00000080: 12f3 103d 463b 863d 5325 8d3d 9300 95bc
00000090: 4249 1dbe 95fb d6bc 58ee 893d 8c29 9abd
000000a0: 7c6a 9e3d b53a fa3d 7a9a d5bd b900 123c
000000b0: f17a a63d ad3e a83c e216 713c 79a8 ca3c
000000c0: 86eb 1fbe 380e 863c 0a20 ff3d 06a2 393e
000000d0: 0e5a fc3d f381 f53c f3c2 d53d c0b2 cbbd
000000e0: 3daa 25be 515c 23be 2618 4a3e b4ce e73d
000000f0: ce6d 16be ed0b 903d a07d 1c3e 4255 593e
00000100: 9ff9 3b3e 934a 0d3e d45d 50bd c8ea 75bd
00000110: 2168 0f3e ff8c be3d 27e5 c6bd e244 3e3e
00000120: 4316 ca3d c3b8 cd3d f7ec e5bd 446a 2d3d
00000130: 2682 a4bd d108 193e e690 46bd 39bc a13d
00000140: 4df2 253d f065 e33d 9ed2 88bd 7506 bb3d
00000150: 72a2 03be f6e0 413d c83f 04be 0a97 48be
00000160: b653 33be 4ad3 1c3e 4236 e83d 7781 423e
00000170: 8307 1c3e 184e 38be f855 06be bcef 2ebd
00000180: fdbe 07be 10ea 0e3e 8489 0dbe 67b4 adbd
00000190: aa0f 3bbe fb7a d8bd 0750 1a3e 1221 273e
000001a0: 8cc1 0e3e 4b25 1a3e cf50 333e 5a9d 51bd
000001b0: 10de fc3d ebc5 263e ca97 703d 7da9 4f3e
000001c0: 0825 d43d aa6f fa3d a519 abbd a8ea c03d
000001d0: 1dfe 063d 6801 4abd f3a1 e6bd c8f3 debd
000001e0: b5d5 28be a1ca 083e 4fd8 ff3d 4594 f3bc
000001f0: 03db c5bd 46c9 1c3e deb9 f93d e967 c13c
00000200: 333f b7bd 0522 333e 4862 a53d f43f 25be
00000210: 6221 3e3e 65b2 1e3e 6289 8ebd dbf2 cc3d
00000220: 9cea f1bd 4a6c 24bd 7cad 213e 2ab0 9e3b
00000230: fab8 01be e589 65bd 1862 3cbd 604e 37bd
00000240: 35c9 5f3c b9b5 2e3e fee7 1c3c 079f e1bd
00000250: b04b 993b f1e9 c93d f1ad d13d a96e 37be
00000260: 84b6 1ebd 6824 15be a5eb b6bd fd96 893d
00000270: 7f44 0abe 4282 903d 028b 203e e626 8a3c
00000280: 8848 04be d08c 8fbd 38cd 963d aa9a 18be
00000290: df4b ce3d 3060 17be abd5 27be 332c 55be
000002a0: e3b4 83bd f016 043e b37f 39be beb6 313e
000002b0: ec96 a3bd 5904 1d3d 4f65 f03b e442 26be
000002c0: 4f61 283e 22f4 cc3d 2a83 483e 7030 d23d
000002d0: 59a1 ffbd d2de 443e fa81 a23b 551c c13d
000002e0: 6bbd 19be 16c4 21bd 8887 48be aeaa a0bd
000002f0: 013d 043d 80bc 08be e6ed 8f3d 0387 c93d
00000300: e30f 0d3d 515c 08be e89c 17be f3c0 86bd
00000310: e316 8a3d 19ef 393e f37b f93d ed27 bebb
00000320: 0500 8f3d e5f5 3ebe 3117 24be 8b8f cb3d
00000330: 7208 d6bd 0e95 b83d e1f6 11be 5781 b5bd
00000340: 1d62 1bbe 9c2f ca3d 43f3 5dbc fa60 133e
00000350: 4eca f73d 1a99 de3d afe1 293c 4231 64bd
00000360: 58fb 33bc b8cb f93c 464c bd3d 27bb fabd
00000370: bd8b 283e be74 76bc de3d 35be a29e d7bd
00000380: 149b 393e edf8 3e3e 4463 2fbe f538 0f3e
00000390: 0335 b43d 24d8 eb3d 59ef 1b3e c1bd e0bd
000003a0: 4830 913d 607d ab3d b16f 5ebd 8181 953d
000003b0: 1793 5ebd 42ee ed3d fd3f 4fbd 68cf 94bd
000003c0: b2a1 3f3d b4c2 9c3d d8ab bebd 03d3 a93c
000003d0: 22f1 d03d 696a cbbc a3a0 563d dc9b 61bd
000003e0: fec9 8d3d ddc7 08be 680d d5bd 6fbc dcbd
000003f0: 26fd 2b3e dbee 6cbd e4a4 a73b f211 afbd

bias f4 [128]
0.17043039 0.15292372 -0.07662994 -0.07629986 0.0034359456 0.034998186 0.0063496744 0.06596729
0.13935387 -0.042633966 0.10715446 0.024366189 0.07594596 0.078603014 -0.046720486 -0.08999956
0.09577238 -0.12424195 0.10635027 -0.114279985 0.13313054 0.07961357 -0.054823004 0.111800194
-0.06489748 0.0349892 0.058983516 0.02590968 0.04563796 -0.004943526 -0.07222655 0.11088507
0.09037617 0.08504988 0.13660662 -0.09463439 -0.04423776 0.00087608723 0.16826744 -0.14493544
-0.11317514 -0.041549575 -0.16696657 -0.15450418 0.13459936 0.022339199 -0.152603 -0.013828619
-0.006786717 -0.06308569 -0.16274962 0.10298304 -0.02252131 0.19508716 -0.14606261 -0.101603255
0.0016131906 -0.1256723 0.13845502 0.14726904 0.1860181 -0.12649204 0.1528247 0.14048374
-0.073030606 0.017597036 0.0945304 0.14084008 -0.17338027 0.17942776 -0.048428882 0.096162245
-0.12237323 -0.15548217 -0.12636887 0.112026095 -0.09194747 0.13508382 0.064698264 0.078312635
-0.044717394 -0.075382754 -0.08074011 -0.102830276 0.17854445 -0.004159497 -0.07314231 -0.1850771
0.01927609 -0.1944676 -0.01706544 0.121268526 -0.11125263 0.10925409 -0.04588346 -0.14571555
-0.17818582 0.09842926 -0.14015247 0.095949724 0.03621285 0.10593282 -0.14102773 0.1736322
-0.18282025 -0.12792195 0.11168749 0.008070595 -0.1026367 -0.05134044 -0.17980006 -0.16830578
-0.048791926 0.15898478 0.057828743 0.023168905 -0.045203228 0.16756491 0.005762991 0.081925765
0.0008981986 0.0417474 0.07520295 0.14544503 0.1187192 0.021458875 0.09418739 -0.05208069
00000000: 4e85 2e3e 0998 1c3e 28f0 9cbd 1a43 9cbd
00000010: 9a2d 613b 425a 0f3d ee10 d03b dc19 873d
00000020: c8b2 0e3e f4a0 2ebd cc73 db3d 9a9b c73c
00000030: 8e89 9b3d 9efa a03d fb5d 3fbd b051 b8bd
00000040: 4f24 c43d 9072 febd 2cce d93d a00b eabd
00000050: 5f53 083e 700c a33d 168e 60bd 80f7 e43d
00000060: f8e8 84bd d650 0f3d b398 713d 8a40 d43c
00000070: dfee 3a3d 4dfd a1bb 83eb 93bd b617 e33d
00000080: 2417 b93d a22e ae3d 9be2 0b3e adcf c1bd
00000090: a732 35bd 38a9 653a 4d4e 2c3e f569 14be
000000a0: 5ec8 e7bd e32f 2abd 49f9 2abe 5836 1ebe
000000b0: 6ad4 093e b200 b73c f643 1cbe 6f91 62bc
000000c0: 1c63 debb 1233 81bd d6a7 26be c6e8 d23d
000000d0: 9c7e b8bc eec4 473e 7091 15be 5e15 d0bd
000000e0: b271 d33a 3db0 00be 27c7 0d3e b2cd 163e
000000f0: 877b 3e3e 2187 01be 147e 1c3e f8da 0f3e
00000100: 1291 95bd a927 903c 2899 c13d 6238 103e
00000110: 998a 31be e9bb 373e 5d5d 46bd b6f0 c43d
00000120: d19e fabd b836 1fbe d766 01be f06d e53d
00000130: f54e bcbd 6a53 0a3e 8680 843d 6062 a03d
00000140: 9629 37bd 4662 9abd 125b a5bd ae98 d2bd
00000150: 5bd4 363e 644c 88bb a3cb 95bd da84 3dbe
00000160: e4e8 9d3c 8422 47be d2cc 8bbc a25b f83d
00000170: 6bd8 e3bd 9cc0 df3d 4cf0 3bbd 7536 15be
00000180: 5876 36be 4895 c93d 2184 0fbe 4a81 c43d
00000190: ed53 143d 4ef3 d83d 9369 10be a4cc 313e
000001a0: 3b35 3bbe f9fd 02be 69bc e43d 873a 043c
000001b0: 3133 d2bd 5a4a 52bd 821d 38be 5a58 2cbe
000001c0: 0bda 47bd e8cc 223e d5dd 6c3d b7cc bd3c
000001d0: 0527 39bd 2396 2b3e 79d7 bc3b b2c8 a73d
000001e0: 1675 6b3a 52ff 2a3d 0104 9a3d 8bef 143e
000001f0: 0d23 f33d 86ca af3c 51e5 c03d 9052 55bd

weight f4 [128, 128]
0.06152955 0.026903953 0.08151706 -0.0018371841 -0.07136144 0.025120553 0.033681862 0.072201565
0.03754687 0.028611384 0.07010205 -0.027079554 0.08153479 0.043064278 0.06813656 0.05897323
-0.068107344 0.04371756 0.085790396 -0.06847898 -0.0001849317 -0.04727919 -0.0153299915 0.013570639
0.040679824 -0.022579022 -0.08223714 0.04709443 0.058656592 -0.013927738 0.07672889 0.061790813
-0.014005854 0.002881371 0.018815253 -0.01746977 -0.018494084 -0.029446652 -0.044241685 0.05192643
-0.027974233 -0.03765428 0.07596672 0.017397575 0.07210433 0.08502793 -0.011453599 0.022990903
0.08510734 -0.056919225 -0.023298414 0.015891407 -0.0031507306 0.037788924 0.044715416 -0.026930824
0.0038105834 0.08490378 -0.05125823 -0.060313646 -0.070592605 0.05320843 -0.075459 -0.041008446
0.061442457 -0.049344428 0.07559108 -0.028063562 0.022158353 0.010225426 0.0015958302 0.064027764
0.072315894 -0.05813855 0.047620494 0.023001304 0.0056674797 -0.07869365 0.039060008 0.06639177
-0.071844496 -0.0871187 -0.08969697 0.02016406 -0.025125902 -0.024117751 0.08783324 -0.0175215
-0.051250316 0.0055327625 -0.049453195 -0.030887084 0.05772678 0.021089891 -0.04948995 0.083019555
0.06629892 -0.06130992 0.039848153 0.036710985 -0.06571711 -0.06544977 -0.0687979 0.046024684
0.02085248 0.04379793 -0.040905483 0.068407506 0.013512572 -0.06549818 -0.016256746 0.049323037
0.020078003 -0.020107878 -0.066547245 -0.05286621 0.08147287 -0.050678328 0.055769846 -0.03090818
0.004985152 -0.07995165 -0.023051612 0.07898968 -0.08015758 0.052624755 -0.07270908 0.00947884
-0.07352587 -0.067635104 -0.07015521 -0.025184255 0.02172287 -0.05795735 0.018826246 0.056424137
0.081356466 0.089544885 0.0681904 -0.022762805 -0.00334754 0.08422983 0.04167905 -0.012185523
0.07633326 -0.07538601 0.07623538 0.058301095 -0.056565218 -0.06650717 0.071081676 0.08855648
0.006976202 -0.03875538 0.0573384 0.04350322 -0.007798405 0.076361105 0.061628643 0.0247022
0.044649508 -0.08543673 -0.035608128 0.015931947 0.021789972 -0.0025441656 0.043198455 0.030329615
-0.0838064 0.033902083 0.0013214813 -0.061381135 0.0037730543 -0.015132511 -0.041178394 -0.07885848
0.080424614 -0.04864157 0.017847702 0.07299678 -0.005383865 -0.05571814 -0.07688722 0.013507424
-0.05120248 0.012660316 0.02440597 -0.01730916 0.06079132 -0.0029330163 -0.030365352 -0.048157465
0.02747168 -0.05439416 0.025791612 -0.004957665 0.0691029 -0.04141663 -0.039757915 -0.0035570748
-0.045609586 0.03553009 -0.028934306 0.03471052 0.061108604 0.054948486 -0.008730407 0.05063513
-0.0415041 -0.081136495 -0.0007234755 -0.06327038 -0.070705526 0.026991038 0.08169951 -0.035806645
-0.0009085726 -0.065389164 0.023912901 0.03154617 -0.015157154 0.07166498 -0.06988407 -0.008369269
-0.046236187 0.083968475 0.0749189 0.09077618 0.08389593 0.02384699 -0.061505627 -0.052917406
0.026483277 -0.07862588 0.06629106 0.040629674 0.026360963 -0.068471804 0.06986761 -0.016242364
-0.027477143 0.048787475 0.015100831 -0.036065377 0.026316624 -0.054515786 0.08336678 0.082220055
0.040696062 0.046315204 -0.079035275 -0.046797786 -0.081226654 -0.04040619 -0.06679264 0.06981156
00000000: 6906 7c3d ae65 dc3c 6bf2 a63d abcd f0ba
00000010: f225 92bd 9ec9 cd3c fef5 093d 6ade 933d
00000020: bfca 193d 6c62 ea3c aa91 8f3d f1d5 ddbc
00000030: b6fb a63d 2b64 303d 2e8b 8b3d ea8d 713d
00000040: dd7b 8bbd 2f11 333d e0b2 af3d b53e 8cbd
00000050: 3aea 41b9 d3a7 41bd a52a 7bbc 6357 5e3c
00000060: e39f 263d a4f7 b8bc f26b a8bd 17e6 403d
00000070: e541 703d 2b31 64bc 0924 9d3d 5d18 7d3d
00000080: cf78 65bc 62d5 3c3b 7222 9a3c c31c 8fbc
00000090: e880 97bc 1b3a f1bc c536 35bd cfb0 543d
000000a0: 382a e5bc 603b 1abd 7194 9b3d 5c85 8e3c
000000b0: 6fab 933d 2023 ae3d e0a7 3bbc 6b57 bc3c
000000c0: c24c ae3d 2224 69bd 51dc bebc b22e 823c
000000d0: 7d7c 4ebb 8fc8 1a3d 8327 373d 089e dcbc
000000e0: fbba 793b 08e2 ad3d 26f4 51bd 710b 77bd
000000f0: db92 90bd 15f1 593d 408a 9abd 79f8 27bd
00000100: 16ab 7b3d 621d 4abd 7fcf 9a3d 8ee5 e5bc
00000110: 6f85 b53c 8c88 273c 2d2b d13a fd20 833d
00000120: 5b1a 943d b022 6ebd b50d 433d 3b6d bc3c
00000130: 44b6 b93b 232a a1bd 63fd 1f3d 69f8 873d
00000140: 3523 93bd 4a6b b2bd 0cb3 b7bd 192f a53c
00000150: d6d4 cdbc 9792 c5bc eae1 b33d 4089 8fbc
00000160: daeb 51bd 2d4c b53b 6f8f 4abd e906 fdbc
00000170: eb72 6c3d b5c4 ac3c f9b5 4abd 2806 aa3d
00000180: bac7 873d 1c20 7bbd d137 233d 425e 163d
00000190: b196 86bd 870a 86bd eae5 8cbd 6184 3c3d
000001a0: d2d2 aa3c 7565 333d 828c 27bd 3c19 8c3d
000001b0: d663 5d3c e923 86bd de2c 85bc f406 4a3d
000001c0: a07a a43c 47b9 a4bc ec49 88bd 3d8a 58bd
000001d0: 40db a63d 1494 4fbd ec6e 643d 2733 fdbc
000001e0: 7c5a a33b b1bd a3bd bcd6 bcbc 57c5 a13d
000001f0: a829 a4bd 0e8d 573d 80e8 94bd 234d 1b3c
00000200: bb94 96bd 4684 8abd 89ad 8fbd 364f cebc
00000210: 29f4 b13c b064 6dbd 8039 9a3c ff1c 673d
00000220: 389e a63d 4f63 b73d 69a7 8b3d 1079 babc
00000230: 6762 5bbb b080 ac3d a7b7 2a3d caa5 47bc
00000240: 9d54 9c3d fb63 9abd 4b21 9c3d 21cd 6e3d
00000250: eeb0 67bd e934 88bd 4593 913d 1a5d b53d
00000260: a098 e43b f6bd 1ebd acdb 6a3d 6f30 323d
00000270: c389 ffbb 3663 9c3d 516e 7c3d 455c ca3c
00000280: 67e2 363d 74f9 aebd d4d9 11bd b783 823c
00000290: e280 b23c 04bc 26bb ddf0 303d d075 f83c
000002a0: b1a2 abbd e9dc 0a3d 8e35 ad3a c96a 7bbd
000002b0: 5945 773b 5aee 77bc adaa 28bd 8e80 a1bd
000002c0: a9b5 a43d 623c 47bd 5835 923c 567f 953d
000002d0: 226b b0bb b438 64bd 0c77 9dbd 3e4e 5d3c
000002e0: b1b9 51bd 376d 4f3c 07ef c73c f1cb 8dbc
000002f0: 5200 793d d937 40bb c2c0 f8bc c340 45bd
00000300: 4a0c e13c 69cc 5ebd ee48 d33c e973 a2bb
00000310: d285 8d3d 7ca4 29bd 32d9 22bd d01d 69bb
00000320: 1ed1 3abd 0088 113d a307 edbc 9e2c 0e3d
00000330: 044d 7a3d aa11 613d fb09 0fbc c866 4f3d
00000340: 3400 2abd e42a a6bd 9ea7 3dba e793 81bd
00000350: 0fce 90bd 4f1c dd3c 1352 a73d fda9 12bd
00000360: 462d 6eba c1ea 85bd fde4 c33c 8f36 013d
00000370: b655 78bc 17c5 923d 611f 8fbd 421f 09bc
00000380: 2862 3dbd aaf7 ab3d 156f 993d dde8 b93d
00000390: a1d1 ab3d c35a c33c 53ed 7bbd ecbf 58bd
000003a0: 75f3 d83c 9b06 a1bd 9bc3 873d 4d6b 263d
000003b0: f2f2 d73c f23a 8cbd c016 8f3d b50e 85bc
000003c0: bf17 e1bc 60d5 473d 7a69 773c 4ab9 13bd
000003d0: f695 d73c f24b 5fbd 34bc aa3d fd62 a83d
000003e0: eab0 263d 03b5 3d3d 3fdd a1bd 09af 3fbd
000003f0: 295a a6bd f680 25bd 94ca 88bd 5df9 8e3d

bias f4 [128]
-0.04205055 -0.03290338 0.02916792 0.015280578 0.04780007 0.059811115 -0.051956218 0.08434571
0.004255121 -0.06670126 0.053114984 -0.045379885 0.075021505 -0.034937333 -0.033255916 0.039435893
0.086041525 -0.06218094 0.04576486 -0.06666509 0.071301475 -0.0053050807 0.043400444 -0.044553265
0.028469365 0.075065374 0.045822795 0.05658579 0.060037203 -0.027704088 -0.068820074 0.009056743
-0.06692325 -0.08564475 0.042016115 0.06132137 0.01035299 -0.07246884 0.010600967 0.060973138
0.018755604 -0.06362546 -0.014857997 -0.062209275 -0.0018976624 -0.044240244 -0.075916834 0.030364372
-0.029660119 -0.07483008 0.08468315 -0.028805247 -0.07484264 0.038927652 0.06798664 -0.035122063
-0.07003607 -0.004151744 0.07640346 0.08305007 0.033611845 -0.020354478 0.05576251 0.008378704
0.0237538 0.02087038 -0.047955498 -0.040494744 -0.044968553 -0.022424735 0.01464645 0.0086504975
0.021264303 0.079380736 0.009439405 0.053828344 -0.0063289646 -0.07370701 0.046190035 0.07760633
0.06798715 0.010769713 -0.007863693 -0.062599294 0.07043887 0.07073256 0.022105424 0.0020044195
0.0448963 -0.05869056 0.058591533 -0.07459908 0.08753275 -0.054972548 -0.039153285 0.010360453
-0.035893336 0.015051623 -0.051243577 -0.02392231 0.011790531 -0.02642008 -0.023018919 0.0019284523
0.012702938 0.052615076 0.054145247 0.04911216 -0.0439606 -0.053662475 -0.023942217 -0.07382553
-0.060760368 0.05256114 -0.04934154 0.006828161 0.043626845 0.072988994 0.019605946 -0.025903007
-0.027309332 0.06674462 -0.033124126 0.042239755 0.053555194 -0.035684034 0.0068459455 0.034588624
00000000: 333d 2cbd b2c5 06bd 90f1 ee3c 645b 7a3c
00000010: 02ca 433d 80fc 743d 0bd0 54bd 72bd ac3d
00000020: 8b6e 8b3b ac9a 88bd 198f 593d 42e0 39bd
00000030: e0a4 993d 731a 0fbd 5b37 08bd 8887 213d
00000040: 8a36 b03d 71b1 7ebd ef73 3b3d b587 88bd
00000050: 8206 923d 3ed6 adbb aac4 313d 7c7d 36bd
00000060: 9638 e93c e0bb 993d afb0 3b3d 80c6 673d
00000070: 92e9 753d aff3 e2bc 8af1 8cbd bc62 143c
00000080: 0f0f 89bd 8466 afbd 1719 2c3d 1e2c 7b3d
00000090: 969f 293c 8b6a 94bd aeaf 2d3c f8be 793d
000000a0: 5aa5 993c 114e 82bd f56e 73bc 27cf 7ebd
000000b0: fcba f8ba 4235 35bd 497a 9bbd b4be f83c
000000c0: c7f9 f2bc 8340 99bd 5c6e ad3d fbf8 ebbc
000000d0: 1947 99bd 9a72 1f3d 943c 8b3d 27dc 0fbd
000000e0: 126f 8fbd 5a0b 88bb 6b79 9c3d 2816 aa3d
000000f0: 93ac 093d 6fbe a6bc 3b67 643d d546 093c
00000100: 5497 c23c 5cf8 aa3c fc6c 44bd d1dd 25bd
00000110: f230 38bd 14b4 b7bc aaf7 6f3c d1ba 0d3c
00000120: 7a32 ae3c 5e92 a23d bca7 1a3c 1c7b 5c3d
00000130: 3463 cfbb b3f3 96bd c331 3d3d 11f0 9e3d
00000140: d93c 8b3d 7373 303c b8d6 00bc 0f34 80bd
00000150: 4142 903d 3bdc 903d 6f16 b53c 945c 033b
00000160: 2fe5 373d 8365 70bd adfd 6f3d 67c7 98bd
00000170: 5f44 b33d e52a 61bd 325f 20bd e4be 293c
00000180: e404 13bd 159b 763c c9e4 51bd b8f8 c3bc
00000190: 122d 413c ec6e d8bc 2c92 bcbc 1fc4 fc3a
000001a0: fc1f 503c e882 573d 68c7 5d3d d529 493d
000001b0: 0810 34bd 2fcd 5bbd 7822 c4bc d731 97bd
000001c0: dddf 78bd 5a4a 573d 5b1a 4abd c4be df3b
000001d0: 10b2 323d 417b 953d a69c a03c 8b32 d4bc
000001e0: d2b7 dfbc 67b1 883d 2aad 07bd 9803 2d3d
000001f0: b15c 5b3d 6c29 12bd f453 e03b cdac 0d3d

weight f4 [128, 128]
-0.07611578 0.046223316 0.045040205 -0.080658026 0.07603155 0.07576104 0.04762493 0.03653446
0.061889216 -0.0010692767 0.0012054119 -0.004676498 -0.07828569 -0.019611236 0.050379667 -0.0053477986
-0.08877869 0.023729127 0.018009244 0.030145884 0.028987752 0.036974 0.04118293 0.02516931
-0.05015439 -0.04050954 0.056818027 0.03196798 -0.014091632 0.05566997 -0.027957086 -0.03630631
-0.028405497 0.06664438 -0.061240595 0.027540129 -0.007104268 -0.03211406 -0.07671947 0.049884062
0.027009685 0.036344543 0.06532658 -0.07660048 0.045530893 0.014964707 -0.02279257 -0.07941865
0.0641887 0.0057582706 0.047879633 -0.029301532 -0.0016738467 0.07338699 -0.036715496 -0.035312574
-0.02567959 -0.06447167 0.0544024 0.0009218921 0.0093204575 0.04618713 -0.0786219 -0.0805046
-0.08269174 0.02323253 -0.030181514 0.05799679 0.05141227 -0.06392907 0.009570645 -0.06530079
0.029849114 0.0031980367 0.016789285 0.008745512 0.0033832083 -0.0794222 -0.01079589 0.03509686
-0.038987827 0.08304309 -0.00017156401 -0.033423126 -0.010499237 -0.044472083 0.0043263105 -0.012003
-0.017481497 0.07702035 0.052359812 -0.0073919017 -0.07286118 -0.08534932 -0.07948854 -0.019360846
-0.09063374 0.047907636 -0.08237214 0.009654879 0.06871422 0.06833858 0.02804432 0.008992638
0.029964203 0.068569854 -0.08126291 0.01052129 -0.05975046 0.071748756 0.03856294 -0.06319249
-0.033330213 0.020384723 -0.028043805 -0.07833958 -0.044114992 0.043125845 -0.012603761 0.0019101794
-0.08606413 -0.057067875 0.03973788 0.025972327 -0.069475144 -0.050714314 -0.046483193 0.07449658
-0.07994603 0.024638467 0.008943213 0.05333313 0.03524971 -0.07473325 -0.071543716 0.045078725
-0.08312834 -0.059004646 -0.05072823 -0.0754933 0.04318706 0.07221793 -0.054646946 -0.0060543953
-0.035801027 0.00048644916 0.016185 0.015723575 -0.07501066 0.029536802 -0.009770377 0.03454744
-0.067590915 -0.07724868 -0.0508895 0.00854461 0.08686927 0.087397955 -0.028073585 -0.013965914
-0.06024194 -0.03555567 0.022939213 -0.046674762 -0.051445827 0.08611248 -0.055411424 -0.08486611
0.082105465 0.07485037 0.034957767 -0.011901705 -0.04993756 0.013649351 -0.00036580718 -0.037298184
0.07413572 -0.03569742 -0.07932533 0.017229116 0.003161685 0.06429145 0.05526451 0.006011508
-0.02473112 0.011914068 -0.024113934 0.0726178 0.03132784 0.02291513 -0.06746501 0.08739158
-0.037058655 0.062949814 -0.003708691 0.08246195 -0.023305912 0.004012402 -0.04211537 0.025440454
-0.070847794 0.06910398 0.080699004 -0.04178801 0.0702027 0.06541053 0.07660929 -0.08189943
-0.0695201 -0.08621509 0.024071328 -0.032215945 0.01960061 0.05766756 0.033148855 -0.0074592773
0.032393806 -0.01958564 0.011410293 -0.064182706 -0.04785464 0.06511037 -0.053966552 0.07604278
0.05107191 0.021812938 0.02760554 0.08063309 -0.05076557 -0.048586372 0.014535804 -0.06439614
-0.053055163 0.0016758803 0.04623307 -0.050267614 -0.028595174 -0.049471587 0.071672775 -0.066971384
0.0046320553 0.06692665 0.07697444 -0.010599918 -0.06288627 -0.020285694 0.08084098 -0.0062676687
0.05843905 0.07357639 0.040107094 -0.038696148 -0.051307246 -0.036651246 -0.07126524 -0.082424186
00000000: 97e2 9bbd a954 3d3d 147c 383d 0930 a5bd
00000010: 6eb6 9b3d 9b28 9b3d 5c12 433d 28a5 153d
00000020: 8c7f 7d3d f926 8cba e9fe 9d3a 4f3d 99bb
00000030: 3f54 a0bd bea7 a0bc e95a 4e3d 963c afbb
00000040: 9ad1 b5bd 9663 c23c 1f88 933c 80f4 f63c
00000050: b977 ed3c 0d72 173d 6faf 283d de2f ce3c
00000060: b16e 4dbd 55ed 25bd 05ba 683d dbf0 023d
00000070: 97e0 66bc 3206 643d 4206 e5bc edb5 14bd
00000080: a5b2 e8bc d97c 883d 6bd7 7abd d69b e13c
00000090: ebca e8bb 088a 03bd 191f 9dbd 3b53 4c3d
000000a0: 6a43 dd3c 04de 143d f1c9 853d b6e0 9cbd
000000b0: 9a7e 3a3d 882e 753c 7cb7 babc 3fa6 a2bd
000000c0: 5d75 833d e0af bc3b 6f1d 443d c409 f0bc
000000d0: fa64 dbba eb4b 963d fd62 16bd eba3 10bd
000000e0: 015e d2bc b909 84bd 0dd5 5e3d 22ab 713a
000000f0: d5b4 183c b72e 3d3d 8504 a1bd 99df a4bd
00000100: 495a a9bd 2652 be3c 393f f7bc 0b8e 6d3d
00000110: ac95 523d 3fed 82bd 32ce 1c3c 6cbc 85bd
00000120: 2186 f43c 2796 513b af89 893c 5649 0f3c
00000130: d1b8 5d3b 1ba8 a2bd 3fe1 30bc bac1 0f3d
00000140: b3b1 1fbd 7f12 aa3d dde5 33b9 b0e6 08bd
00000150: fe04 2cbc 5c28 36bd b9c3 8d3b 3ba8 44bc
00000160: 5b35 8fbc d8bc 9d3d 3e77 563d c437 f2bb
00000170: 3e38 95bd a0cb aebd e3ca a2bd a39a 9ebc
00000180: 2f9e b9bd cc3a 443d b9b2 a8bd 7f2f 1e3c
00000190: 0aba 8c3d 19f5 8b3d 34bd e53c dc55 133c
000001a0: 7d77 f53c 5a6e 8c3d 2b6d a6bd 7d61 2c3c
000001b0: e6bc 74bd 03f1 923d 2cf4 1d3d 106b 81bd
000001c0: 4385 08bd ddfd a63c 1fbc e5bc 8070 a0bd
000001d0: ecb1 34bd baa4 303d 0180 4ebc fc5e fa3a
000001e0: 6442 b0bd 01c0 69bd 30c4 223d ebc3 d43c
000001f0: fc48 8ebd d0b9 4fbd 2965 3ebd aa91 983d
00000200: bfba a3bd 9cd6 c93c 8e86 123c d773 5a3d
00000210: 0062 103d bf0d 99bd 8385 92bd 78a4 383d
00000220: 313f aabd dbae 71bd 68c8 4fbd 3b9c 9abd
00000230: eae4 303d fee6 933d 7ad5 5fbd f363 c6bb
00000240: 19a4 12bd 1a0a ff39 6896 843c bace 803c
00000250: 309f 99bd 2af7 f13c ee13 20bc 9e81 0d3d
00000260: 1b6d 8abd 8e34 9ebd 8271 50bd b1fe 0b3c
00000270: 84e8 b13d b3fd b23d 93fa e5bc 4ad1 64bc
00000280: 41c0 76bd d2a2 11bd 04eb bb3c 092e 3fbd
00000290: dcb8 52bd bd5b b03d 17f7 62bd 48ce adbd
000002a0: e926 a83d 274b 993d e02f 0f3d 5eff 42bc
000002b0: 548b 4cbd 87a1 5f3c cfc9 bfb9 fbc5 18bd
000002c0: 78d4 973d 7537 12bd 5275 a2bd 1324 8d3c
000002d0: 4634 4f3b 3cab 833d 0a5d 623d 2ffc c43b
000002e0: eb98 cabc 3933 433c 968a c5bc a4b8 943d
000002f0: 9f51 003d 83b8 bb3c 182b 8abd 5bfa b23d
00000300: d1ca 17bd d5eb 803d 830d 73bb d0e1 a83d
00000310: 0aec bebc 787a 833b 2b81 2cbd 8068 d03c
00000320: a618 91bd 6386 8d3d 8545 a53d e829 2bbd
00000330: 6fc6 8f3d f5f5 853d 55e5 9c3d e3ba a7bd
00000340: 8e60 8ebd 8991 b0bd 3c31 c53c def4 03bd
00000350: 7591 a03c d234 6c3d 18c7 073d f46c f4bb
00000360: 5eaf 043d 1072 a0bc 3df2 3a3c 3972 83bd
00000370: 3a03 44bd 9658 853d 080c 5dbd 51bc 9b3d
00000380: c730 513d 0cb1 b23c 0325 e23c f622 a53d
00000390: 8fef 4fbd 8102 47bd 9527 6e3c 20e2 83bd
000003a0: 5f50 59bd 36a9 db3a e35e 3d3d 6ae5 4dbd
000003b0: 6d40 eabc b8a2 4abd 2dc9 923d 4b28 89bd
000003c0: 7fc8 973b d710 893d c6a4 9d3d 47ab 2dbc
000003d0: 84ca 80bd 2f2e a6bc f58f a53d 0461 cdbb
000003e0: c95d 6f3d 38af 963d 5647 243d da7f 1ebd
000003f0: 8c27 52bd 9e1f 16bd 83f3 91bd 03ce a8bd

bias f4 [128]
0.059490826 -0.07917722 -0.03813613 -0.035493694 0.03101262 -0.00016567686 -0.025688846 0.006720475
0.08164978 -0.07988362 -0.037426725 0.00902674 -0.011562952 -0.056442086 0.03514559 0.057970945
-0.036377154 0.07966413 -0.09129213 -0.0017920441 -0.004924981 -0.02327229 0.034902137 -0.07961708
-0.04744623 0.02014445 -0.05072819 0.049940385 -0.081068136 0.05023059 0.035331186 0.05558716
-0.057973936 -0.07629056 0.05682902 -0.07782016 -0.011206072 -0.036989436 -0.07960546 0.055272248
-0.07068963 0.03779306 -0.014029521 0.038730603 -0.082036756 -0.049428 -0.054577246 -0.027485363
-0.034084912 0.065626614 0.052485608 0.047562595 0.020591183 0.001133028 0.029899834 -0.05175791
0.065472856 0.041030124 0.06557373 0.021097029 0.057121165 0.048783556 -0.0202105 -0.09230163
-0.018433202 -0.044175442 -0.026560655 0.076256715 0.045147624 -0.03774713 -0.011751895 0.025150048
0.035410278 -0.0086386185 -0.09250236 -0.08250908 0.008077421 -0.06374923 -0.06759706 -0.074211895
0.02500812 -0.04537131 0.002319263 -0.06756709 0.06286679 -0.07359952 0.04039844 0.019255115
0.020686686 -0.08327049 0.091989815 0.09070564 -0.0055923094 0.08312525 -0.0062026074 -0.0150434775
-0.024083573 0.012764954 0.07711972 -0.04932346 0.05582193 0.061625417 0.025384536 -0.0012045312
0.071662374 -0.08963197 -3.1237658e-05 -0.048126437 0.047668505 -0.060445793 -0.072791666 -0.026069408
0.015008826 0.09088414 -0.005885016 -0.0044311644 -0.005592975 0.047164984 -0.073889196 -0.082496636
0.0579486 0.03553699 -0.034549996 -0.030359875 0.027433153 -0.032419566 0.06020891 0.021846876
00000000: a7ac 733d ab27 a2bd a134 1cbd d661 11bd
00000010: 2e0e fe3c 8bb9 2db9 6a71 d2bc 6e37 dc3b
00000020: 0038 a73d 069a a3bd c44c 19bd e4e4 133c
00000030: 8972 3dbc d12f 67bd d2f4 0f3d f172 6d3d
00000040: 3600 15bd f326 a33d 5ef7 babd 06e3 eaba
00000050: bc61 a1bb 88a5 bebc 8bf5 0e3d 480e a3bd
00000060: fa56 42bd f905 a53c 5dc8 4fbd 4a8e 4c3d
00000070: 0d07 a6bd 97be 4d3d 6fb7 103d 5daf 633d
00000080: 1476 6dbd 3a3e 9cbd 8cc5 683d 2d60 9fbd
00000090: ac99 37bc 3c82 17bd 3008 a3bd 2765 623d
000000a0: bac5 90bd e5cc 1a3d 13dc 65bc fba3 1e3d
000000b0: e302 a8bd 0475 4abd 648c 5fbd fc28 e1bc
000000c0: 9f9c 0bbd 3f67 863d 26fb 563d ffd0 423d
000000d0: d7ae a83c 1c82 943a 7ff0 f43c 1a00 54bd
000000e0: a216 863d 340f 283d 854b 863d add3 ac3c
000000f0: e2f7 693d 44d1 473d 7e90 a5bc a308 bdbd
00000100: 3a01 97bc 4ff1 34bd bb95 d9bc 7b2c 9c3d
00000110: b7ec 383d bc9c 1abd 058b 40bc 7907 ce3c
00000120: 5e0a 113d fe88 0dbc e171 bdbd 85fa a8bd
00000130: 2957 043c f58e 82bd 5470 8abd 68fc 97bd
00000140: d4dd cc3c 44d7 39bd c7fe 173b 9d60 8abd
00000150: 4ec0 803d 58bb 96bd d678 253d e7bc 9d3c
00000160: 2077 a93c b889 aabd 2865 bc3d e1c3 b93d
00000170: b13f b7bb 923d aa3d 3e3f cbbb eb78 76bc
00000180: ea4a c5bc 1924 513c f2f0 9d3d 6507 4abd
00000190: 89a5 643d ef6a 7c3d 3bf3 cf3c 5ce1 9dba
000001a0: b9c3 923d f790 b7bd 2e05 03b8 3a20 45bd
000001b0: 0d40 433d 0296 77bd cc13 95bd 838f d5bc
000001c0: 94e7 753c 7721 ba3d 18d7 c0bb 4d33 91bb
000001d0: 4645 b7bb 1230 413d 3853 97bd fff3 a8bd
000001e0: 835b 6d3d 3c8f 113d 4c84 0dbd 46b5 f8bc
000001f0: 7ebb e03c 61ca 04bd 9e9d 763d 38f8 b23c

weight f4 [128, 128]
0.03732262 0.06106125 0.0022031667 0.09841624 -0.0082871225 -0.063688435 0.0887149 -0.014862702
-0.0077204886 0.087926775 0.008132777 -0.06772854 -0.036338344 0.042917226 -0.026053153 0.034893468
-0.034243833 -0.049164366 -0.028182538 -0.039355043 -0.03300548 -0.016748298 0.05044425 0.015456254
-0.04319594 0.038086403 -0.022058707 -0.05643697 -0.041589346 -0.0666267 0.049617376 -0.05906213
-0.041337006 0.03764512 -0.03729744 -0.046678152 -0.09393845 0.04274475 -0.04333462 0.08026169
0.017240673 0.039013404 -0.039306995 -0.056821927 0.05500941 -0.015424483 0.09925324 0.066337526
0.03333913 -0.011907761 -0.031017175 0.023612367 0.08578428 -0.048585545 0.091862634 -0.0100247655
0.07347812 0.0039545437 -0.009563431 0.004850056 0.075806245 0.08572509 0.098746635 -0.06387298
-0.061792087 0.014172978 -0.060824826 0.03861628 0.04276632 0.08356719 0.043970622 0.057067174
-0.062866084 0.0940098 0.041906215 -0.021626018 0.040675376 0.060339004 -0.04593663 0.050926346
-0.022004766 -0.028216995 0.06965579 0.08144024 0.027313503 0.03276249 0.034789443 -0.03735264
0.04783093 0.036837302 0.029782673 0.07262694 -0.0720106 -0.023499144 0.050117385 -0.02961359
-0.031701002 -0.06497811 0.05809911 0.06555644 0.03656843 0.05875185 -0.024540808 0.08487292
-0.066238746 0.001343113 0.051302347 0.10204447 0.040204607 0.054440923 0.043148722 -0.06056507
-0.047233477 0.06359695 0.103788994 -0.019625962 0.08394982 0.09053407 0.05565309 -0.059025515
0.07471276 0.008227593 -0.024684645 -0.06396737 0.032527592 0.08634229 -0.043238476 -0.027508095
0.054638375 0.066860564 -0.040524356 0.0054148696 -0.08810532 -0.018705187 0.07815185 0.022418967
0.03929838 0.046198316 -0.0006391174 0.03023569 0.008499662 -0.085246764 0.031689227 0.060905714
-0.023429822 0.039193664 -0.06251456 0.021997297 -0.08018462 -0.06586656 0.007753952 0.030796017
0.024392067 -0.06993042 -0.08755179 0.048689608 0.008064037 0.0048149684 -0.08569758 0.02013262
0.05308801 0.053486153 0.015210251 -0.033454966 0.057106163 0.052210182 -0.008005744 0.019382877
-0.0666752 0.06595442 0.02783203 -0.054869957 -0.00054887997 0.06724099 0.020276032 0.026797729
0.024505 0.03426739 -0.062915176 0.007550569 -0.07301772 -0.015534157 -0.064824834 -0.03949629
0.07768385 0.015959052 0.0686885 0.08273181 0.047750432 0.074671224 -0.017306577 -0.027183404
0.011933823 -0.044058878 0.023249699 0.026394606 -0.028346768 0.01781792 0.054370094 -0.017090995
0.055815987 -0.020003827 0.044797357 0.04703098 -0.086002365 -0.052926954 -0.07381735 0.040334877
0.06960262 -0.0225119 -0.07495129 0.08320912 -0.017359965 -0.011453587 0.032995086 0.02418892
0.038541466 -0.08328479 0.054557387 -0.08640571 0.007821813 0.04237754 -0.023075413 0.054072507
-0.013184212 0.029188072 0.0017061587 0.07813706 -0.0686383 0.065798834 -0.04442517 -0.025886053
0.027324898 -0.011962575 0.00048899325 -0.04335733 0.0011401555 -0.08673377 0.00070658245 -0.07348477
-0.032465234 0.0716277 -0.061612736 0.06646354 0.048286047 0.08614178 0.08479299 -0.021685138
0.047427986 -0.06447342 0.030678589 -0.0039324206 -0.06860892 0.023317864 -0.051345363 -0.0034915004
00000000: 9bdf 183d 5c1b 7a3d 0163 103b 748e c93d
00000010: b6c6 07bc 156f 82bd 28b0 b53d b182 73bc
00000020: 27fc fcbb f412 b43d 573f 053c 43b5 8abd
00000030: 84d7 14bd f9c9 2f3d 6c6d d5bc 74ec 0e3d
00000040: 4343 0cbd 9360 49bd 11df e6bc c132 21bd
00000050: c130 07bd ba33 89bc a19e 4e3d 3a3c 7d3c
00000060: 3aee 30bd 7d00 1c3d 76b4 b4bc 742a 67bd
00000070: 9759 2abd 9473 88bd 973b 4b3d 22eb 71bd
00000080: fe50 29bd c531 1a3d 33c5 18bd 9731 3fbd
00000090: cd62 c0bd 1e15 2f3d a47f 31bd 3e60 a43d
000000a0: 503c 8d3c 85cc 1f3d 5f00 21bd 1cbe 68bd
000000b0: 8c51 613d f9b6 7cbc 4845 cb3d f8db 873d
000000c0: 9d8e 083d c518 43bc bb17 febc b96e c13c
000000d0: abaf af3d a301 47bd 7a22 bc3d ea3e 24bc
000000e0: b27b 963d 1e95 813b f0af 1cbc 38ed 9e3b
000000f0: 4e40 9b3d a390 af3d ad3b ca3d d6cf 82bd
00000100: b319 7dbd c735 683c 7423 79bd 1b2c 1e3d
00000110: bd2b 2f3d 4625 ab3d 8a1a 343d 45bf 693d
00000120: efbf 80bd 3688 c03d daa5 2b3d 0c29 b1bc
00000130: 399b 263d 0826 773d 0c28 3cbd 2598 503d
00000140: 5743 b4bc 5427 e7bc b2a7 8e3d 24ca a63d
00000150: 91c0 df3c f631 063d 607f 0e3d 15ff 18bd
00000160: 5eea 433d b6e2 163d cbfa f33c 6fbd 943d
00000170: 4b7a 93bd 4781 c0bc e347 4d3d 3398 f2bc
00000180: e9d8 01bd 3e13 85bd 55f9 6d3d 7442 863d
00000190: c7c8 153d c8a5 703d ce09 c9bc dad1 ad3d
000001a0: 2ea8 87bd 650b b03a 6922 523d b1fc d03d
000001b0: 96ad 243d 72fd 5e3d b7bc 303d 1413 78bd
000001c0: e477 41bd 1e3f 823d 538f d43d a0c6 a0bc
000001d0: e2ed ab3d ed69 b93d 7ff4 633d bdc4 71bd
000001e0: 0103 993d 07cd 063c 7437 cabc 5301 83bd
000001f0: a73b 053d 3ad4 b03d d41a 31bd a858 e1bc
00000200: 7dcc 5f3d 31ee 883d defc 25bd 386f b13b
00000210: 9070 b4bd 9f3b 99bc 140e a03d fba7 b73c
00000220: 57f7 203d 723a 3d3d 718a 27ba d6b0 f73c
00000230: 2b42 0b3c db95 aebd 90cc 013d 4578 793d
00000240: e6ef bfbc 8989 203d a207 80bd ad33 b43c
00000250: d637 a4bd 0ce5 86bd dd14 fe3b ee47 fc3c
00000260: dfd1 c73c ae37 8fbd 5a4e b3bd c16e 473d
00000270: 061f 043c e2c6 9d3b 3682 afbd 2aed a43c
00000280: d072 593d 4c14 5b3d 6b34 793c 1308 09bd
00000290: 27e8 693d 58da 553d 862a 03bc d7c8 9e3c
000002a0: 028d 88bd 1c13 873d ffff e33c 52bf 60bd
000002b0: b6e2 0fba a5b5 893d ec19 a63c e986 db3c
000002c0: b6be c83c f65b 0c3d acd9 80bd c36a f73b
000002d0: 508a 95bd fa82 7ebc e2c2 84bd ddc6 21bd
000002e0: b618 9f3d 8fbc 823c 8eac 8c3d 4c6f a93d
000002f0: f595 433d 3aed 983d 86c6 8dbc bbaf debc
00000300: 1586 433c 1577 34bd 2776 be3c 8039 d83c
00000310: 7b37 e8bc e3f6 913c 2db3 5e3d 6a02 8cbc
00000320: 4e9f 643d 11df a3bc 6f7d 373d 8fa3 403d
00000330: 0222 b0bd efc9 58bd 8d2d 97bd 2f36 253d
00000340: d28b 8e3d e06a b8bc 1080 99bd 8b69 aa3d
00000350: 7c36 8ebc d3a7 3bbc db25 073d d827 c63c
00000360: a8dd 1d3d 3791 aabd 9177 5f3d 7af5 b0bd
00000370: 1027 003c 1294 2d3d a608 bdbc 227b 5d3d
00000380: 9802 58bc d31b ef3c 30a1 df3a 5306 a03d
00000390: 3d92 8cbd 8ac1 863d 2bf7 35bd fd0e d4bc
000003a0: 77d8 df3c adfe 43bc c82f 003a 7597 31bd
000003b0: 4571 953a 7aa1 b1bd f239 393a 2f7f 96bd
000003c0: 44fa 04bd 8bb1 923d a35d 7cbd 091e 883d
000003d0: 97c7 453d 1a6b b03d f2a7 ad3d 08a5 b1bc
000003e0: d943 423d a40a 84bd aa51 fb3c 89db 80bb
000003f0: d582 8cbd 1b05 bf3c 844f 52bd a8d1 64bb

bias f4 [128]
-0.03400336 -0.07801511 0.061729446 0.070961714 -0.08986908 0.022221342 0.03231838 0.0026061113
-0.025959585 0.017758599 0.0022998825 0.018587736 0.052304592 0.047928113 -0.06695895 0.014805236
0.006008595 0.014266759 0.08694022 0.025311042 -0.0011391867 -0.089757316 -0.02137128 -0.02714315
-0.01682431 0.0470086 -0.032447986 0.042073485 0.07303977 -0.018754937 0.07944159 -0.030948387
0.043181222 0.010600542 -0.07771972 0.04992491 -0.04486155 -0.031295113 -0.012335185 0.07624081
0.0765252 0.021030005 -0.042094827 0.07656403 -0.014880102 0.008035045 -0.026916571 0.02815025
-0.029818978 0.08081525 -0.06713251 -0.0066097695 -0.021286638 0.024518775 -0.072259456 0.0031492007
0.059959024 -0.09130568 0.031246303 0.026948921 0.069318436 0.03987065 -0.039523516 -0.071577504
-0.07992905 -0.068187684 0.04404282 -0.045420617 -0.042765446 0.04971723 0.012873332 0.009287037
0.08408759 0.03455273 -0.03298206 -0.07105704 -0.041003436 0.012050262 -0.075832896 -0.078678004
0.012137481 -0.054177646 -0.0022037062 -0.08999292 -0.061019197 -0.025239136 -0.069161154 0.054046948
-0.019578809 0.053085603 -0.035211205 -0.035191987 0.0046459166 0.03677967 -0.04498776 0.018331299
-0.06205094 -0.029563056 0.08080329 -0.011613696 -0.012614748 -0.030654838 0.05663702 -0.07187013
0.069386505 -0.081669055 -0.07064926 -0.06884454 -0.0036755179 -0.043819774 0.032913357 0.038207874
0.053844724 -0.043585267 0.031317037 0.05212648 -0.050069127 0.067982584 0.05996995 -0.031007819
-0.04774555 -0.08306862 0.053653304 -0.0514842 -0.046308048 0.091015875 0.00300127 0.026069956
00000000: 1b47 0bbd 63c6 9fbd 04d8 7c3d 6054 913d
00000010: 480d b8bd 8809 b63c 4760 043d 4bcb 2a3b
00000020: 32a9 d4bc 7b7a 913c a0b9 163b 4f45 983c
00000030: 573d 563d 4550 443d c621 89bd a991 723c
00000040: c0e3 c43b 20bf 693c b70d b23d 1a59 cf3c
00000050: c350 95ba afd2 b7bd d312 afbc 505b debc
00000060: 23d3 89bc 178c 403d 2ee8 04bd 3f55 2c3d
00000070: e095 953d f4a3 99bc 46b2 a23d 7987 fdbc
00000080: cbde 303d e5ad 2d3c 842b 9fbd 107e 4c3d
00000090: bfc0 37bd 4e2f 00bd 8419 4abc 2424 9c3d
000000a0: 3eb9 9c3d 1e47 ac3c a06b 2cbd 9acd 9c3d
000000b0: accb 73bc 6ca5 033c 2480 dcbc 5a9b e63c
000000c0: ee46 f4bc 7782 a53d c57c 89bd c496 d8bb
000000d0: 5161 aebc 99db c83c c4fc 93bd d262 4e3b
000000e0: 9897 753d 79fe babd 3ff8 ff3c fcc3 dc3c
000000f0: d3f6 8d3d 684f 233d 69e3 21bd 3a97 92bd
00000100: d7b1 a3bd fca5 8bbd 3e66 343d f80a 3abd
00000110: d22a 2fbd 4ba4 4b3d abea 523c a828 183c
00000120: 1d36 ac3d 2a87 0d3d 3218 07bd 5a86 91bd
00000130: 38f3 27bd 766e 453c 474e 9bbd ef21 a1bd
00000140: 49dc 463c 61e9 5dbd 0e6c 10bb 354e b8bd
00000150: 44ef 79bd 4ec2 cebc 5da4 8dbd 5560 5d3d
00000160: bd63 a0bc 4a70 593d a039 10bd 7925 10bd
00000170: c63c 983b 47a6 163d 1645 38bd 852b 963c
00000180: 2029 7ebd 392e f2bc 327c a53d 5f47 3ebc
00000190: 17ae 4ebc db1f fbbc 38fc 673d a630 93bd
000001a0: 831a 8e3d 1b42 a7bd 8fb0 90bd 5efe 8cbd
000001b0: f5e0 70bb 5d7c 33bd 28d0 063d dc7f 1c3d
000001c0: 498c 5c3d 7786 32bd 4b46 003d 9382 553d
000001d0: 4915 4dbd 743a 8b3d 0da3 753d 1c04 febc
000001e0: d690 43bd e11f aabd 91c3 5b3d 19e1 52bd
000001f0: 82ad 3dbd 8866 ba3d f4b0 443b a990 d53c

weight f4 [2, 128]
0.023851145 -0.025563795 -0.07392946 -0.046641644 -0.05239334 0.056431882 0.01780823 -0.0086390795
0.017995823 0.083331116 0.010009264 -0.03826142 0.049092155 -0.03817191 -0.023815928 0.039950635
-0.07842711 -0.037205756 0.0017173665 -0.022387156 0.08248019 -0.021875365 0.041363563 -0.06359841
0.01554456 -0.051883508 -0.0046230922 0.08523495 -0.055646412 0.096114725 -0.06934455 -0.057944585
0.0029596179 -0.012164467 -0.039611597 -0.0055756117 0.00660927 0.0953445 0.05978552 -0.02464117
0.095161386 -0.052300174 -0.019364612 -0.056936808 0.063055314 -0.059433367 -0.038320072 -0.008108627
0.019734392 0.07588854 0.06177187 -0.04456343 -0.07275572 0.09411262 0.048429683 0.044831228
0.08933318 0.018479014 0.051007148 0.07683029 -0.0093199 0.088530876 -0.0031120183 -0.06718357
-0.027576502 0.008658057 0.084357485 -0.05688132 0.026784338 0.08297084 0.046846222 0.06653155
-0.011795358 -0.04395823 -0.006935273 0.021370567 -0.021382071 0.036366407 0.050807375 -0.040397614
-0.03632466 -0.040106658 -0.0518139 -0.07423226 -0.06634608 0.08442116 0.049961373 0.059679534
0.0953326 0.051677126 0.06860676 0.014383136 0.013418943 0.039320327 -0.031952307 -0.05290814
0.022811545 0.070218645 -0.012916248 0.045877207 0.056883957 0.040686272 0.08339909 -0.07282079
-0.050545212 0.041900005 -0.07315431 0.056696463 -0.036055297 -0.035424385 -0.0052338005 -0.04113582
0.056813184 0.0572525 -0.031084076 -0.005763515 0.082836226 -0.06448846 0.07735226 0.07480697
0.07173381 -0.025962736 0.0014263759 -0.047613535 0.064966336 0.023051944 0.007250432 -0.019209076
-0.02826769 0.06901075 0.00841124 0.070093416 -0.020292303 -0.036390394 0.07836176 0.00670288
-0.046014115 0.062035892 0.03798488 0.06730189 0.03244841 -0.08146159 -0.05480477 -0.08676486
0.011299269 0.034826852 -0.059843175 0.06392859 -0.01440762 0.07624244 -0.013834822 0.06834412
-0.04961456 0.05703362 -0.001352844 0.027055213 -0.012718011 -0.074011326 -0.059543088 0.05836475
0.02737606 0.039519504 -0.042787366 0.064547755 -0.034501273 -0.06768793 0.054865424 0.026358262
-0.041549996 0.0010369809 0.067600355 0.06136379 -0.06644845 0.036792472 0.027004259 0.058000877
0.04488313 -0.09320921 0.02573815 -0.018216956 0.016387478 0.039884154 -0.034155615 0.059408057
-0.049147207 0.022911353 0.021438634 0.07585174 0.025156233 -0.052667566 -0.0022263294 -0.0028525796
0.062239006 -0.021544442 -0.013900457 -0.066539325 -0.08402073 0.038929135 0.017183676 -0.034753747
-0.07963517 -0.057336666 0.049795162 0.036197033 -0.05097391 -0.081211284 0.0035113194 -0.07471086
-0.014847108 0.02298902 -0.08983922 0.03332335 0.060267355 -0.08996922 -0.03447517 -0.044774402
0.021515403 0.015460202 -0.035745613 -0.08437995 -0.0068217725 0.001408725 -0.008403573 -0.0048636533
0.024065763 -0.04745598 0.033086624 0.018012427 -0.09428722 0.022706103 -0.07371022 0.026495356
-0.04352285 -0.03300302 -0.065671645 0.00813194 -0.066760585 -0.0333899 -0.059595652 0.037173506
0.040451493 0.009840016 -0.0037792474 0.012123051 -0.09352502 -0.08188635 -0.0010717376 0.05506318
0.06926659 -0.04984841 -0.076280646 -0.022905616 0.077289134 -0.009884718 0.016406335 -0.047442447
00000000: 7a63 c33c 2a6b d1bc 5468 97bd 4f0b 3fbd
00000010: 669a 56bd 1e25 673d 91e2 913c ed8a 0dbc
00000020: fa6b 933c 81a9 aa3d e5fd 233c 02b8 1cbd
00000030: db14 493d 265a 1cbd 9f19 c3bc 47a3 233d
00000040: 659e a0bd 1065 18bd 4219 e13a 4565 b7bc
00000050: 60eb a83d f733 b3bc d76c 293d e23f 82bd
00000060: 9cae 7e3c cd83 54bd 4f7d 97bb a98f ae3d
00000070: 7eed 63bd ccd7 c43d 8404 8ebd 4d57 6dbd
00000080: 26f6 413b 794d 47bc c53f 22bd 9fb3 b6bb
00000090: 9392 d83b fa43 c33d a9e1 743d 47dc c9bc
000000a0: f9e3 c23d b538 56bd 89a2 9ebc 9236 69bd
000000b0: 2523 813d 6770 73bd 82f5 1cbd 0cda 04bc
000000c0: 05aa a13c 736b 9b3d 8004 7d3d 2588 36bd
000000d0: f300 95bd 1ebe c03d 345e 463d f3a0 373d
000000e0: 50f4 b63d 4d61 973c dfec 503d 3359 9d3d
000000f0: 7eb2 18bc ad4f b53d 01f3 4bbb 8a97 89bd
00000100: 1ee8 e1bc 86da 0d3c 9ec3 ac3d 63fc 68bd
00000110: d46a db3c 9eec a93d d3e1 3f3d b141 883d
00000120: 5141 41bc 8c0d 34bd 4941 e3bb 5411 af3c
00000130: 7429 afbc f1f4 143d 651b 503d f877 25bd
00000140: 2bc9 14bd e146 24bd d03a 54bd 1507 98bd
00000150: 74e0 87bd 00e5 ac3d 4ca4 4c3d 8772 743d
00000160: bd3d c33d 65ab 533d b381 8c3d 3fa7 6b3c
00000170: 20db 5b3c 5a0e 213d 6ce0 02bd 35b6 58bd
00000180: 47df ba3c cbce 8f3d ac9e 53bc bde9 3b3d
00000190: 27ff 683d a6a6 263d 24cd aa3d 1123 95bd
000001a0: 7f08 4fbd 579f 2b3d edd1 95bd 8d3a 683d
000001b0: b8ae 13bd 2919 11bd 4d80 abbb 097e 28bd
000001c0: f1b4 683d 9981 6a3d 08a4 febc dedb bcbb
000001d0: 0aa6 a93d 8712 84bd dd6a 9e3d 6634 993d
000001e0: 2de9 923d ceaf d4bc 3cf5 ba3a 6906 43bd
000001f0: 120d 853d 6ed7 bc3c 0895 ed3b 5a5c 9dbc
00000200: a591 e7bc 8255 8d3d 4ccf 093c 238d 8f3d
00000210: 0b3c a6bc 180e 15bd 217c a03d d5a3 db3b
00000220: 4c79 3cbd 5919 7e3d 0996 1b3d 93d5 893d
00000230: a0e8 043d 56d5 a6bd f77a 60bd c6b1 b1bd
00000240: 9220 393c 9aa6 0e3d 1e1e 75bd feec 823d
00000250: f00d 6cbc ff24 9c3d 73ab 62bc 01f8 8b3d
00000260: a338 4bbd 169c 693d e951 b1ba e5a2 dd3c
00000270: 345f 50bc 4093 97bd 74e3 73bd e00f 6f3d
00000280: c243 e03c 34df 213d ce41 2fbd 9d31 843d
00000290: 3551 0dbd f89f 8abd 91ba 603d 48ed d73c
000002a0: 5430 2abd 4eeb 873a 0e72 8a3d 9958 7b3d
000002b0: 2016 88bd b4b3 163d 0938 dd3c 5492 6d3d
000002c0: 5fd7 373d 78e4 bebd d0d8 d23c ba3b 95bc
000002d0: 083f 863c 915d 233d c2e6 0bbd dd55 733d
000002e0: 954e 49bd 97b0 bb3c 13a0 af3c 2858 9b3d
000002f0: 7214 ce3c f2b9 57bd 9ce7 11bb 58f2 3abb
00000300: 54ee 7e3d f87d b0bc bebe 63bc c545 88bd
00000310: 0f13 acbd 2874 1f3d c8c4 8c3c f259 0ebd
00000320: c417 a3bd dad9 6abd 03f6 4b3d 5743 143d
00000330: 05ca 50bd 1a52 a6bd 2a1e 663b 0202 99bd
00000340: 4941 73bc 7853 bc3c a0fd b7bd 117e 083d
00000350: e7da 763d c841 b8bd d635 0dbd 5d65 37bd
00000360: 1241 b03c c94c 7d3c fe69 12bd 65cf acbd
00000370: 2d89 dfbb f8a4 b83a 24af 09bc 485f 9fbb
00000380: 9025 c53c 3461 42bd d785 073d cc8e 933c
00000390: a819 c1bd 2602 ba3c 62f5 96bd ca0c d93c
000003a0: 0445 32bd 2d2e 07bd db7e 86bd d43b 053c
000003b0: c6b9 88bd d9c3 08bd 921a 74bd 3f43 183d
000003c0: 77b0 253d 0538 213c 40ad 77bb c39f 463c
000003d0: 0c8a bfbd 08b4 a7bd 8c79 8cba ee89 613d
000003e0: a4db 8d3d d92d 4cbd 0739 9cbd 8fa4 bbbc
000003f0: c449 9e3d 83f3 21bc 9466 863c 0353 42bd

bias f4 [2]
-0.065971635 -0.035767324
00000000: 231c 87bd c280 12bd
